…
:"https://localhost:8080/"},"id":"SAWCuJH-8zJl","executionInfo":{"status":"ok","timestamp":1651618109413,"user_tz":240,"elapsed":548,"user":{"displayName":"Lakshyana","userId":"14846287915491486779"}},"outputId":"5966b363-07db-440a-bdde-38156e4085a0"},"execution_count":null,"outputs":[{"output_type":"stream","name":"stdout","text":["Model: \"sequential\"\n","_________________________________________________________________\n"," Layer (type)                Output Shape              Param #   \n","=================================================================\n"," embedding (Embedding)       (None, 1, 50)             13464750  \n","                                                                 \n"," reshape (Reshape)           (None, 50)                0         \n","                                                                 \n"," dense (Dense)               (None, 50)                2550      \n","                                                                 \n"," dropout (Dropout)           (None, 50)                0         \n","                                                                 \n"," dense_1 (Dense)             (None, 16)                816       \n","                                                                 \n"," dropout_1 (Dropout)         (None, 16)                0         \n","                                                                 \n"," coral_ordinal (CoralOrdinal  (None, 3)                19        \n"," )                                                               \n","                                                                 \n","=================================================================\n","Total params: 13,468,135\n","Trainable params: 3,385\n","Non-trainable params: 13,464,750\n","_________________________________________________________________\n","None\n"]}]},{
…
